main_high.py:40: UserWarning: nn.init.xavier_uniform is now deprecated in favor of nn.init.xavier_uniform_.
  torch.nn.init.xavier_uniform(m.weight)
  0% 0/565 [00:00<?, ?it/s]
Loading Data
Loading Data
----------------------------------------------------------------
        Layer (type)               Output Shape         Param #
================================================================
            Conv3d-1     [-1, 32, 256, 256, 32]             896
       BatchNorm3d-2     [-1, 32, 256, 256, 32]              64
              ReLU-3     [-1, 32, 256, 256, 32]               0
            Conv3d-4     [-1, 32, 256, 256, 32]          27,680
       BatchNorm3d-5     [-1, 32, 256, 256, 32]              64
              ReLU-6     [-1, 32, 256, 256, 32]               0
            Conv3d-7      [-1, 1, 256, 256, 32]              33
         MaxPool3d-8     [-1, 32, 128, 128, 16]               0
            Conv3d-9     [-1, 64, 128, 128, 16]          55,360
      BatchNorm3d-10     [-1, 64, 128, 128, 16]             128
             ReLU-11     [-1, 64, 128, 128, 16]               0
           Conv3d-12     [-1, 64, 128, 128, 16]         110,656
      BatchNorm3d-13     [-1, 64, 128, 128, 16]             128
             ReLU-14     [-1, 64, 128, 128, 16]               0
           Conv3d-15      [-1, 1, 128, 128, 16]              65
         Upsample-16      [-1, 1, 256, 256, 32]               0
        MaxPool3d-17        [-1, 64, 64, 64, 8]               0
           Conv3d-18       [-1, 128, 64, 64, 8]         221,312
      BatchNorm3d-19       [-1, 128, 64, 64, 8]             256
             ReLU-20       [-1, 128, 64, 64, 8]               0
           Conv3d-21       [-1, 128, 64, 64, 8]         442,496
      BatchNorm3d-22       [-1, 128, 64, 64, 8]             256
             ReLU-23       [-1, 128, 64, 64, 8]               0
           Conv3d-24         [-1, 1, 64, 64, 8]             129
         Upsample-25      [-1, 1, 256, 256, 32]               0
        MaxPool3d-26       [-1, 128, 32, 32, 4]               0
           Conv3d-27       [-1, 256, 32, 32, 4]         884,992
      BatchNorm3d-28       [-1, 256, 32, 32, 4]             512
             ReLU-29       [-1, 256, 32, 32, 4]               0
           Conv3d-30       [-1, 256, 32, 32, 4]       1,769,728
      BatchNorm3d-31       [-1, 256, 32, 32, 4]             512
             ReLU-32       [-1, 256, 32, 32, 4]               0
           Conv3d-33         [-1, 1, 32, 32, 4]             257
         Upsample-34      [-1, 1, 256, 256, 32]               0
           Conv3d-35      [-1, 8, 256, 256, 32]             872
      BatchNorm3d-36      [-1, 8, 256, 256, 32]              16
             ReLU-37      [-1, 8, 256, 256, 32]               0
           Conv3d-38      [-1, 1, 256, 256, 32]             217
================================================================
Total params: 3,516,629
Trainable params: 3,516,629
Non-trainable params: 0
----------------------------------------------------------------
Input size (MB): 8.00
Forward/backward pass size (MB): 4630.28
Params size (MB): 13.41
Estimated Total Size (MB): 4651.70








































































…
