main.py:43: UserWarning: nn.init.xavier_uniform is now deprecated in favor of nn.init.xavier_uniform_.
  torch.nn.init.xavier_uniform(m.weight)
  0%|                                                                                                                                                                                                   | 0/4 [00:00<?, ?it/s]
----------------------------------------------------------------
        Layer (type)               Output Shape         Param #
================================================================
            Conv3d-1       [-1, 32, 64, 64, 64]             896
       BatchNorm3d-2       [-1, 32, 64, 64, 64]              64
              ReLU-3       [-1, 32, 64, 64, 64]               0
            Conv3d-4       [-1, 32, 64, 64, 64]          27,680
       BatchNorm3d-5       [-1, 32, 64, 64, 64]              64
              ReLU-6       [-1, 32, 64, 64, 64]               0
            Conv3d-7        [-1, 1, 64, 64, 64]              33
         MaxPool3d-8       [-1, 32, 32, 32, 32]               0
            Conv3d-9       [-1, 64, 32, 32, 32]          55,360
      BatchNorm3d-10       [-1, 64, 32, 32, 32]             128
             ReLU-11       [-1, 64, 32, 32, 32]               0
           Conv3d-12       [-1, 64, 32, 32, 32]         110,656
      BatchNorm3d-13       [-1, 64, 32, 32, 32]             128
             ReLU-14       [-1, 64, 32, 32, 32]               0
           Conv3d-15        [-1, 1, 32, 32, 32]              65
         Upsample-16        [-1, 1, 64, 64, 64]               0
        MaxPool3d-17       [-1, 64, 16, 16, 16]               0
           Conv3d-18      [-1, 128, 16, 16, 16]         221,312
      BatchNorm3d-19      [-1, 128, 16, 16, 16]             256
             ReLU-20      [-1, 128, 16, 16, 16]               0
           Conv3d-21      [-1, 128, 16, 16, 16]         442,496
      BatchNorm3d-22      [-1, 128, 16, 16, 16]             256
             ReLU-23      [-1, 128, 16, 16, 16]               0
           Conv3d-24        [-1, 1, 16, 16, 16]             129
         Upsample-25        [-1, 1, 64, 64, 64]               0
        MaxPool3d-26         [-1, 128, 8, 8, 8]               0
           Conv3d-27         [-1, 256, 8, 8, 8]         884,992
      BatchNorm3d-28         [-1, 256, 8, 8, 8]             512
             ReLU-29         [-1, 256, 8, 8, 8]               0
           Conv3d-30         [-1, 256, 8, 8, 8]       1,769,728
      BatchNorm3d-31         [-1, 256, 8, 8, 8]             512
             ReLU-32         [-1, 256, 8, 8, 8]               0
           Conv3d-33           [-1, 1, 8, 8, 8]             257
         Upsample-34        [-1, 1, 64, 64, 64]               0
           Conv3d-35        [-1, 8, 64, 64, 64]             872
      BatchNorm3d-36        [-1, 8, 64, 64, 64]              16
             ReLU-37        [-1, 8, 64, 64, 64]               0
           Conv3d-38        [-1, 1, 64, 64, 64]             217
          Softmax-39        [-1, 1, 64, 64, 64]               0
================================================================
Total params: 3,516,629
Trainable params: 3,516,629
Non-trainable params: 0
----------------------------------------------------------------
Input size (MB): 1.00
Forward/backward pass size (MB): 580.79
Params size (MB): 13.41
Estimated Total Size (MB): 595.20



loss:1.208, dice:0.170: 100%|██████████████████████████████████████████████████████████████████████████████████████████████████████████████████████████████████████████████████████████████████| 4/4 [22:35<00:00, 338.89s/it]
…
